Artificial Intelligence A-Z/Part 1 - Deep Q-Learning/Module 1 - Self Driving Car/last_brain.pth (torch, 34987 bytes, 18 tensors)

fc1.weight f4 [30, 5]
00000000: dfa2 0abf 43b4 4ebd 458f 58be 0d01 e2be
00000010: a248 a43e 61a8 4d3e f7b5 96be 120a 263e
00000020: f77f 423f 69ef c1be c87e 5abd a0e9 c43d
00000030: 53a4 8abe 28f5 02be 40f7 893c 3484 cbbe
00000040: df8a 95be 5e58 923e 2ef8 67bf 1b32 2c3e
00000050: ca12 823c b355 12bf e193 913d 7551 683f
00000060: cc80 d23d 4709 b5be 31c3 3cbc 2155 8c3e
00000070: b0d2 383f 310f 843d e851 c1be 2f89 3dbf
00000080: a66b 24bf ccb3 7e3f def2 8fbf e87c 1ebe
00000090: e1e4 6abe e91f 303e 601b 853e a901 3d3d
000000a0: 68dc 17bc dc21 d23d 193b c2be 6771 0ebf
000000b0: dad7 ab3e d2ae b8bd 48db b5be fac4 173d
000000c0: 14e6 27bf e8de ab3d 5df9 863d 0f89 2a3f
000000d0: 242c e13e f919 05be 15a7 cabe 1927 50bd
000000e0: 86db 35be f5ce 083e 694c 7d3f c734 4ebc
000000f0: f278 e13e 29b0 e3be 0136 8ebe bd95 6d3d
00000100: 0795 3abe 9a61 4d3e 8518 e2be d432 00bf
00000110: 471a 03bf 1a26 66be 3167 4dbe 4273 82be
00000120: 4c1a d8be ba30 943e 4838 863e dbb0 2bbf
00000130: a28a 2f3f a287 8cbf d42c d1be 1f82 813e
00000140: 828d b2bc 39f8 96bf 14b6 513e 1825 7c3f
00000150: 3a5e 3cbd 7e1e 373e 814f 033f 141b a2be
00000160: 8df7 2fbe 9e8f b33d 14ab 9e3d 6cdb dcbc
00000170: 6d01 653d 4e06 2fbf 145d 39bd 1934 ccbe
00000180: ec1a a2be b5c8 c43e 81b4 1cbf 3e6c 333c
00000190: b6c4 95be 06d7 b3be f1f3 2b3e 748c e33e
000001a0: 59ad ab3e a93e 57be 0cee fe3e 7363 9f3e
000001b0: d4d0 643f 60fa d4bd d83f f1bc 870a 2a3e
000001c0: c472 04be 7464 57be d5a4 893e e962 a7be
000001d0: 8464 e0be 54d1 22be 76ef d23e bee1 c63e
000001e0: 34b0 88bf f07a 0ebf b59c d63c a334 123f
000001f0: 5fda d5be 9694 4bbd 0b24 1ebf 1c25 96be
00000200: a09e 7bbf 8107 173e ec4e 11be 621f 32be
00000210: 4ff5 f1bd d826 45bf d757 943e ef35 fcbd
00000220: 5e0a 1bbf 4f90 003f 8a4c 2a3f bff4 d7be
00000230: 98b7 23bf 23ed 8ec0 8a73 3f3e e4ef 5cbe
00000240: dfad a3be 3f6e 33bf 8ab4 c93d b131 e33e
00000250: b469 4d3d 55ff 3fbf
-0.5415477 -0.05046488 -0.21148403 -0.44141427 0.32086664 0.20083763 -0.29435703 0.16214779
0.7597651 -0.37877968 -0.053343564 0.09614873 -0.27078494 -0.12788832 0.01684153 -0.397493
-0.29207513 0.28583044 -0.9061307 0.16815989 0.0158781 -0.57162017 0.07108284 0.90749294
0.10278472 -0.3535864 -0.011521147 0.27408698 0.72196484 0.0644821 -0.37757802 -0.7403745
-0.6422676 0.994931 -1.1245992 -0.15477335 -0.22938873 0.17199673 0.25997448 0.04614416
-0.009268858 0.102603644 -0.37935713 -0.5564179 0.3356312 -0.09017719 -0.3551886 0.037053086
-0.65585446 0.08392125 0.06590531 0.66615385 0.4397899 -0.12998189 -0.39580598 -0.050818536
-0.17759523 0.13360198 0.9894472 -0.012585825 0.44037586 -0.44470337 -0.27775577 0.05800413
-0.18220912 0.20056763 -0.44159332 -0.5007756 -0.5121197 -0.22475472 -0.20058896 -0.2547856
-0.42207563 0.28943425 0.26214814 -0.67066735 0.6857091 -1.0978892 -0.40854514 0.25294587
-0.021795992 -1.1794502 0.20479614 0.984941 -0.0459883 0.17882726 0.5129319 -0.31661284
-0.17184277 0.08767627 0.07747474 -0.026960097 0.055909563 -0.68368995 -0.04525478 -0.39883497
-0.31661165 0.38434377 -0.6121293 0.0109511 -0.2925164 -0.35124987 0.16792275 0.44443095
0.3353069 -0.21019997 0.4979099 0.3113056 0.89381146 -0.10399318 -0.029449388 0.16605578
-0.12934405 -0.21034414 0.2688357 -0.3269265 -0.43826687 -0.15900165 0.4119832 0.38844103
-1.0678773 -0.5565634 0.02619777 0.5711157 -0.41768166 -0.04970225 -0.6177375 -0.29325187
-0.9828892 0.14748956 -0.14190263 -0.17394784 -0.11814367 -0.77012396 0.28973266 -0.123149745
-0.60562694 0.502202 0.6652304 -0.42178914 -0.63952017 -4.4664474 0.18696418 -0.21575886
-0.3196859 -0.700901 0.09848888 0.4437385 0.050149634 -0.7499898

fc1.bias f4 [30]
00000000: a72e 153f 8201 ab3e f2a0 58be 0e0b cb3e
00000010: c40d 6f3e 88fe 29be e3bc 1b3f 16de 163e
00000020: 0000 8ebe c8c7 60be 8fb8 a73e 86f3 d03e
00000030: 5b3f a13a b4a2 3b3f 3d9c d5be 0059 643f
00000040: b952 7f3e 3ffe c23e 627e 763e eaa0 3cbe
00000050: aa1e e0be 7b53 e6be abfd 21bf 7c86 5cbe
00000060: cb30 033f 0c10 2d3f 1244 1a3f ec26 fc3e
00000070: 149c cb3e b246 a53e
0.5827431 0.33399588 -0.21155146 0.39656872 0.23345095 -0.16601002 0.60835093 0.14733157
-0.27734375 -0.2195121 0.32757995 0.40810794 0.0012302207 0.7329514 -0.41720763 0.89198303
0.249339 0.380846 0.24071649 -0.18420759 -0.43773395 -0.44985566 -0.6327769 -0.21535677
0.5124633 0.6760261 0.6026012 0.49248445 0.39767516 0.322805

fc2.weight f4 [64, 30]
00000000: 7add 1d3e ae0b e63d 587f 8a3c 3964 42be
00000010: 6c9d 143e 3061 15bf fea4 13bf af76 4bbe
00000020: d545 64bd a087 663e b7b1 18bd bc2f 6cbe
00000030: b17f 10bf d294 463e 1bc9 34be 5dab 6e3c
00000040: 25b0 2b3c c0b1 7f3c 5c11 033e fc6d 543e
00000050: 6264 d1bd 5ed5 e63d 4661 953d c838 cb3d
00000060: 501d b0be 7ff9 823e 5a2d 64be ccd0 7a3d
00000070: f4de 5a3f 5fa7 363c 6982 573e 3b29 3c3e
00000080: 1439 e43d 5c65 8c3d 4045 88bd d451 633e
00000090: f27c 2bbd 2a8d 2cbe 93f6 0d3e ab36 23be
000000a0: 1f09 a5bb a9e1 ffbd fa73 8abc 3f3d e03e
000000b0: 984d 51bd 0f56 ba3e 81d7 94be 5847 bb3d
000000c0: 2302 313d e9c7 943b 03c5 9ebd d2f0 febd
000000d0: a45e b63d e5d6 88bd 2e07 48be 7d00 293d
000000e0: 8dfa dc3d b813 33bd a1f3 25bf 3d8a 683c
000000f0: d9c0 813d 28a5 a83d 6ab8 71bd ac72 f7ba
00000100: c5cc 853d 0a39 b7bc da35 f43e b1a9 78bc
00000110: 820c 6cbe 902a a2bd b395 14bf 69a6 463e
00000120: 857e 9d3e f313 833d a09f 72bc f882 e23e
00000130: c0ac 1dbb 948a 293e 9bd8 30be 691a 45bf
00000140: c615 183d b8ef 14bd f932 babd dcfe 703d
00000150: 85bb 673e 932d 13be b873 d6bc 27a7 a7bd
00000160: 23cd 843e 012f 23be 4cb7 4d3e 0412 353e
00000170: 1d9b 2cbe a7f7 87bd e5b5 fcbd 56b8 94be
00000180: 08c1 783e 285b f53d 1af0 333e 786e e7bd
00000190: b310 5b3e bea3 22bd c598 943d fc0f f2be
000001a0: 55e8 ddbd 8f5a 083d 7cfa a6bd 9892 0ebd
000001b0: 941a 113e da5b 863e e158 a8bd 1a38 d63c
000001c0: 1411 1dbe 4f26 35be c5c6 b5be 6df0 79bd
000001d0: 924a 44be c3be cf3d c4e8 fabe 4bf0 32bd
000001e0: d2c5 4e3e 9382 9cba 28d7 9a3d cbd1 bdbc
000001f0: 07b6 bbbb 8845 2b3e cc18 85be 18a3 d0bd
00000200: 88a5 bcbe f0c6 a23d f566 183e 621a a3be
00000210: 65d4 4cbe 0b3c ad3e 909d 983d 9d9d 26be
00000220: 484c 813d 7eb4 133e 179b 033b 46de 1a3e
00000230: 11a8 063d fc39 97bd 9e0f 71bd 8417 1ebd
00000240: 818a a6bf 38ee 883e 346e f3bd 244c 5bbd
00000250: 0042 8dbe 6371 7fbf 7541 403d 90de 34be
00000260: 86ce 04be cb1e 34bf 2a59 4abe 5ac2 42bf
00000270: 55c0 853e 2858 48be 6e75 573c a649 183e
00000280: 9687 023e 4531 033e b928 83be d1e7 b8bd
00000290: 9493 333e 3b68 b93e 99cc 78be 69c2 383d
000002a0: 37d6 03bf 3991 a5bc 2328 2ebe abe8 1dbf
000002b0: 3c75 383e 3479 353d 161c 803e c292 04bf
000002c0: a202 59be 6c4c 2ebe 34fa fdbe ddfd 0f3e
000002d0: d055 7abe c787 9ebd 4d0b cebd 7ea7 e5bd
000002e0: 7bcb 14be ffdf 23be 75d1 813e 60e9 0ebd
000002f0: c87c cdbd b0d1 94bc 08ee d2bd 1ec3 a5be
00000300: 1cfc 823e 7ae4 db3e e87f 2ebd 1f37 383d
00000310: 6bfc c0bd 447e dd3d cae3 753d cbc3 f6bd
00000320: 7eca e83c 01a3 a4bb 152f 09be ca52 293e
00000330: 4f0b 57bf f98c 983e defd d93d 028e 243e
00000340: 33a2 f2bf 6a9c 93bf d153 9a3e afdb 2ebe
00000350: f669 a9bd e006 7dbc 95a7 68bd eb3e 7d3d
00000360: cb7b 63bf 585d 103c 8512 96bd cc5b e83d
00000370: f78a 66be cf78 80be 5f7f db3c 039c 05be
00000380: 6aac 193e 7801 5dbe 3aab 763c dcaa 16be
00000390: 0ca3 04bd 5caa c23e 4dff ee3d 70fe e23d
000003a0: 3d2f 33be 0030 c0bc ddbe 08bf 2225 903d
000003b0: 4259 153e f68e 9abd 04f5 86bf 71cd 38bf
000003c0: 894c 513e b557 203e 6069 31be 11fb 003e
000003d0: 0445 953d 7a54 b3be 092f 443e f41f 2ebe
000003e0: 18de 0ebf 4419 8bbe f9ce 1dbe bfd0 ebbe
000003f0: 644a 56bf ad4e f23d a841 93bd 20b7 b43e
0.15416518 0.112326965 0.016906425 -0.18983544 0.14513177 -0.5835142 -0.57673633 -0.19869493
-0.05573066 0.22512674 -0.037278857 -0.23065084 -0.5644484 0.19392708 -0.1765484 0.014567223
0.010479008 0.015606344 0.12799591 0.2074508 -0.102242246 0.11271165 0.07293944 0.099229395
-0.34397364 0.25580975 -0.22282925 0.06123428 0.8549645 0.011148303 0.21045841 0.18375103
0.11143699 0.0685527 -0.066538334 0.22199184 -0.041867204 -0.16850725 0.13863592 -0.15938823
-0.0050364877 -0.12494213 -0.016901005 0.43796727 -0.05109939 0.36393782 -0.29070666 0.09144467
0.04321493 0.0045404327 -0.07752421 -0.124482766 0.0890477 -0.06681613 -0.19533989 0.04126023
0.10789976 -0.043719977 -0.64824873 0.014193115 0.06335611 0.08234626 -0.05901376 -0.0018878779
0.06533197 -0.022366066 0.47697335 -0.015177176 -0.23051646 -0.079182744 -0.5804092 0.19399418
0.3076059 0.064002894 -0.014808565 0.44240546 -0.0024059266 0.1655677 -0.17270128 -0.76993424
0.03713014 -0.036361426 -0.090917535 0.058836803 0.22630127 -0.14372854 -0.026178226 -0.08186179
0.25937757 -0.159359 0.20089453 0.17682654 -0.16856046 -0.06639033 -0.12339381 -0.29046887
0.24292386 0.11980277 0.1757206 -0.11300367 0.21393089 -0.039706938 0.07255701 -0.4727782
-0.108353294 0.03328949 -0.08153245 -0.03480777 0.14170295 0.26241952 -0.08220077 0.026149798
-0.15338546 -0.17690395 -0.35503212 -0.061020304 -0.19169071 0.10143807 -0.4900571 -0.043686192
0.2019265 -0.001194077 0.07560569 -0.023171326 -0.0057284865 0.16725743 -0.2599548 -0.10187358
-0.3684504 0.079481006 0.14883025 -0.31856066 -0.20002897 0.33834872 0.07451928 -0.16271062
0.063133776 0.14424321 0.0020081454 0.15123853 0.032875124 -0.073841065 -0.058852784 -0.038596645
-1.3011018 0.26744246 -0.11886254 -0.05353941 -0.27589417 -0.9978239 0.046937425 -0.17663026
-0.12969407 -0.70359486 -0.19760576 -0.76077807 0.261233 -0.19564879 0.013150556 0.14871845
0.12747034 0.12811764 -0.25617006 -0.090285905 0.17536765 0.36212334 -0.24296798 0.04510728
-0.5149874 -0.02021085 -0.17007498 -0.6168315 0.18013471 0.04430504 0.25021428 -0.51786435
-0.2119241 -0.1702134 -0.49604952 0.14061685 -0.24446797 -0.07740741 -0.10060749 -0.11213587
-0.14530747 -0.16003416 0.25355116 -0.034890532 -0.10033566 -0.018166393 -0.10299307 -0.32375425
0.2558297 0.4294775 -0.04260245 0.044974443 -0.09423145 0.10815099 0.06003169 -0.12049063
0.028416868 -0.0050243144 -0.13396867 0.16535488 -0.8400163 0.29795054 0.106441244 0.16069797
-1.8955749 -1.1532109 0.30142072 -0.1707599 -0.082721636 -0.015443534 -0.056800444 0.06182758
-0.8886077 0.008811317 -0.07327751 0.11345634 -0.22513948 -0.2509217 0.026794134 -0.13047795
0.15007177 -0.21582592 0.015055472 -0.14713615 -0.032382056 0.380206 0.116697885 0.11083686
-0.17498489 -0.023460388 -0.53416234 0.070383325 0.1458483 -0.07546799 -1.0543523 -0.7218848
0.20439352 0.15658458 -0.17325354 0.12595774 0.07288554 -0.35025388 0.19158567 -0.17004377
-0.5580764 -0.27167714 -0.15410985 -0.46057698 -0.8370726 0.118314125 -0.07190257 0.35295963

fc2.bias f4 [64]
00000000: 3bb1 6f3e 5881 913e 5b71 33be f3e1 bbbd
00000010: 9df3 7e3e 16c8 d33c 5c03 833e d0e3 b73d
00000020: 497e c83c a82b 993e c887 c6bd 4ddf 2ebc
00000030: 381c d33e 5049 043e f6ec 4a3d 9831 77bd
00000040: c8f0 1c3e 783f 343e 51fa fd3d 5591 163e
00000050: 215c bcbc 960a 883e 1c53 b13e 5b17 3b3e
00000060: b3e6 833e 54f3 7bbd 3c10 b63d 6bf1 c1bd
00000070: ea6a 31be 3b04 0dbe 78cd 1e3e 5137 c03e
00000080: 5d92 38be 5cd1 463e 639c 0fbd 7846 bd3e
00000090: 9292 2c3e 9d2f 7a3e f407 79bd 1e72 7a3e
000000a0: 2cb6 823d 44c6 043e ab20 cd3e bb9c 8abc
000000b0: 1ce1 b1bd c1c4 d8bc 3117 3a3e bc60 423d
000000c0: bcdc 28be a0e5 19be 62b3 b83e 921e 063f
000000d0: 95da 31be 1ff1 2cbe f9e8 993c fb9d a93d
000000e0: 7251 643e b147 85be a085 eb3d f657 fcbd
000000f0: df2f 8f3d 8824 653d 8ce3 403e 1ca2 f3bd
0.23407452 0.28418994 -0.1752371 -0.09173956 0.24897619 0.025852244 0.255885 0.08978999
0.02447428 0.2991612 -0.09693867 -0.010673356 0.41232467 0.12918591 0.04954239 -0.06035003
0.15326226 0.17602336 0.1240126 0.14703877 -0.02299315 0.26570576 0.3463372 0.18270628
0.25761947 -0.061511353 0.08889815 -0.09469875 -0.1732594 -0.13771145 0.15508068 0.37542203
-0.18024583 0.19415802 -0.03506125 0.36967826 0.16852787 0.24432226 -0.0607986 0.24457595
0.06382403 0.12966257 0.40063986 -0.016920438 -0.08685514 -0.026461007 0.1817291 0.047455534
-0.16490453 -0.15029001 0.36074358 0.52390397 -0.17368539 -0.16888855 0.018787848 0.082820855
0.22296694 -0.2603126 0.11500096 -0.12321465 0.069915526 0.055943042 0.18836802 -0.11896154

fc3.weight f4 [3, 64]
00000000: af96 583d 775c 1cbe d04d c03e 22c2 eb3d
00000010: 3450 0d3e 894b af3f aecf d43d c277 41bc
00000020: 9880 d93e 2a52 b3bd 6ff7 753c 7498 12bf
00000030: d2f5 16bf 77d8 333c c6d9 5ebd 1b06 1740
00000040: 84aa 963e f0dd 3abf a077 48bd 671a 863f
00000050: b4bf 89bc 15dd 7bbd 0485 12bf f735 89bc
00000060: 061c 43be a08d 3f3c d298 1bbe 4d00 86bd
00000070: c4fb 593b 74be ddba cbfc e03d b155 e8bd
00000080: 6499 253b bfc0 3a3f fe73 c4bc 89a3 00bd
00000090: a0e4 053c 67e0 58be 11ad aa3d 022f 5bbd
000000a0: 6044 8e3c 4530 13bf b526 97be 9499 bdbc
000000b0: 5bf3 0d3d 3d8c 463d 3bf5 f2be 4fc4 873d
000000c0: e379 a7bc 2679 eebd cfcd a5be 6591 fabe
000000d0: 2791 d3bc 8062 b23d 17cb c73d 0c6a 183d
000000e0: 8f2f d23d cd81 0c3c 4be7 1d3f 027f 42bc
000000f0: bb62 6c3e 3d7a 9f3c d305 07bd 31f6 ce3d
00000100: 789a 8e3e a26d 89bd 37a1 063f 9b82 143f
00000110: 2c2c 153f 3de8 ea3d 7d8e 4c3e 1551 fdbe
00000120: 3d24 443e ea55 f6be 78ef a4bd 1905 bebb
00000130: c3ea debe 24b1 1a3b 4912 52bf f2eb 623f
00000140: c10e 853e 4379 d2be db04 4a3d 90da 76bb
00000150: 9b1b febd c75a 06bd 1373 6f3d 16e3 503c
00000160: 3acd 5abf 08da 8c3c 53be 4c3e 711c 23bd
00000170: 5084 313d b030 2b3c cae2 863f 271f ecbe
00000180: 9341 593f 229b ab3e a111 7a3e c3f3 9a3e
00000190: 6f5b 133f b824 0bbf 23a6 28bd 1094 913e
000001a0: a907 91be 570f bbbd 2a44 f9bd 23d0 22bf
000001b0: c4d5 8e3e 5b8c e43e c56a 483c afc1 553e
000001c0: 973b 8f3d c022 5a3c 55f9 77be ecc1 c3be
000001d0: 2347 663f 5fcb f13c 3670 b3bc c403 8d3e
000001e0: 990b 493f 7184 3bbf 30ca c23d 73ff a33e
000001f0: ff8a e6bd ba4b 82bd a552 debe fec8 76bd
00000200: 2561 bc3e faae 63be 9e49 8c3e 61a2 113f
00000210: 1547 263f 8fd1 1c3e 7547 743f 8579 a2bd
00000220: 1505 2c3e 8cc9 5eba b0b4 843a 012f b8be
00000230: c28a 05bf 35ca 47bf d426 67be 371e a33f
00000240: f784 313d df5c ffbe 15b9 4fbe 61e2 6b3f
00000250: 9368 e83d fae0 f13b 59b0 4bbd c3d3 bc3d
00000260: 7962 c8bd 6e25 cfbd e743 64be e103 2a3d
00000270: 4159 363d 525e afbd 6501 5c3f 230b a9be
00000280: 1bf4 093d 5feb f63d bc48 1cbf 0fd6 3bbe
00000290: 6e4f edbd f4e6 21bf 823e 4c3e 2dce 52be
000002a0: 9558 14bf e74c 943e e8fb 18bf 99d5 1fbf
000002b0: 1a39 1a3e 3af9 8d3e 06ce 46be a74d 0bbf
000002c0: 6019 da3c f064 a53c 1476 9ebd 3bf2 babe
000002d0: e4b9 6a3f 408e fe3c 24ad 663e 5161 9f3d
000002e0: 551d 783f cfa5 47bf d6cb 9a3e 5cf7 a53f
000002f0: ccf3 f53d 1b83 ec3d ba7e a63d d6fb 533c
0.052878078 -0.15269648 0.37559366 0.11511637 0.13800126 1.3694927 0.10391174 -0.011808338
0.42480922 -0.08755906 0.015012606 -0.57263875 -0.5896884 0.010976902 -0.054406904 2.3597476
0.29426968 -0.729949 -0.04894221 1.0476807 -0.016815044 -0.061490137 -0.57234216 -0.016749365
-0.19053659 0.011691481 -0.15195015 -0.06543026 0.0033261636 -0.0016917721 0.109857164 -0.11344469
0.002526843 0.7295036 -0.02398109 -0.03140596 0.008172184 -0.21179353 0.08333791 -0.053511627
0.017366588 -0.5749553 -0.2952172 -0.02314452 0.03465591 0.048473585 -0.4745272 0.0662924
-0.020443862 -0.11644201 -0.32383582 -0.48939052 -0.02582605 0.08710194 0.09755533 0.03721051
0.10262977 0.008575869 0.6168105 -0.011871101 0.23084538 0.019467467 -0.03296454 0.10105551
0.27852225 -0.06710364 0.52589744 0.5801179 0.58270526 0.11470077 0.1997623 -0.49475923
0.19154449 -0.48112422 -0.080534875 -0.0057989475 -0.43538484 0.002360412 -0.8205915 0.88641274
0.2598782 -0.4110814 0.049321037 -0.0037666894 -0.12407609 -0.032801416 0.058459353 0.012749454
-0.854694 0.01719381 0.19994478 -0.039822046 0.043339074 0.01044862 1.053796 -0.46117517
0.84865683 0.33516794 0.24420787 0.302641 0.5756139 -0.54352903 -0.041174065 0.28433275
-0.28326157 -0.09133785 -0.121712044 -0.6359884 0.27897465 0.44638333 0.012232487 0.20874666
0.06993788 0.013313949 -0.24216206 -0.38233888 0.89952296 0.02951592 -0.021904092 0.27541935
0.7853332 -0.73248965 0.095112205 0.3203083 -0.1125698 -0.063621 -0.43422428 -0.060250275
0.36792865 -0.22234717 0.27399915 0.56888396 0.6495221 0.15314315 0.95421535 -0.07933334
0.16798814 -0.0008498661 0.001012465 -0.3597336 -0.5216485 -0.7804292 -0.22573406 1.2743596
0.043339696 -0.49875543 -0.20285447 0.921423 0.11348071 0.0073815556 -0.049728725 0.09220078
-0.09784407 -0.10114561 -0.22291528 0.041507605 0.044518713 -0.08562912 0.8593963 -0.3301631
0.033680063 0.12056612 -0.61048484 -0.18343376 -0.11587416 -0.6324303 0.1994572 -0.20586462
-0.57947665 0.28964922 -0.5975938 -0.624353 0.15060845 0.27729207 -0.19414529 -0.54415363
0.026623428 0.020189732 -0.07737365 -0.36512932 0.91689897 0.03107369 0.22526985 0.077822335
0.9691976 -0.7798738 0.3023364 1.2966113 0.12009391 0.11548444 0.0812964 0.01293846

fc3.bias f4 [3]
00000000: 2864 91be 76a6 5ebd 862e b53c
-0.28396726 -0.05435797 0.02211691

exp_avg f4 [30, 5]
00000000: f6b2 fa3a f26f 783a eb52 a33b 60c4 3438
00000010: 60c4 34b8 f8ac 533b 8c29 253b 8077 fb37
00000020: 4611 b2ba 4611 b23a 0000 0000 0000 0000
00000030: 0000 0000 0000 0000 0000 0000 be3d bc3a
00000040: a4a4 273a 2cc9 873b 3dd9 b83a 2ed9 b8ba
00000050: 49f5 c83a c44c 01b8 4859 8b38 a71e 00b9
00000060: 241e 0039 50b0 8039 4255 613a 796f c5b9
00000070: 70b2 113a 70b2 11ba 3d55 8cba da6a 063b
00000080: 585a 10ba 564e 33bb 564e 333b efa7 91ba
00000090: 267a aa3a 44e8 9cb9 3ef3 eeba 38f3 ee3a
000000a0: 05a5 b3ba b007 8fba da1e b23a e6dc 69bb
000000b0: e6dc 693b 64e1 05b9 fd55 0a39 0bec 06bb
000000c0: 6c05 abba 6705 ab3a 6205 a8ba 509b 14b9
000000d0: eab4 cdba 3cfd 89bb 37fd 893b 7e46 c0ba
000000e0: 3149 283b 21ea c2ba 9a67 41ba a067 413a
000000f0: 215b 1bbc 3839 16ba cadd 12bc 831f c03a
00000100: 831f c0ba 6409 103a a24a 973a 91ff 563b
00000110: aa92 d539 aa92 d5b9 0000 0000 0000 0000
00000120: 0000 0000 0000 0000 0000 0000 f25d 17ba
00000130: c666 ddba fa2c f23b ba01 b7ba ba01 b73a
00000140: 1c93 4f3b 6d57 7238 08ef 873a 8938 57b9
00000150: 4138 5739 d954 a839 f6f8 92b9 4c8a 5d3a
00000160: 89a5 2f3a 89a5 2fba 9874 0c3a 7a91 393a
00000170: 8587 d33a d854 65b9 d254 6539 6643 fb39
00000180: ebbe 273a c0d7 f0b6 6308 39bc 6308 393c
00000190: 3dba f02f 0000 0000 2bba f02f 0000 0000
000001a0: 2b82 0230 4b11 3ab8 3b78 123a 9c32 80ba
000001b0: bd13 d939 bd13 d9b9 3a08 2531 0400 0000
000001c0: 3908 2531 0400 0080 11f1 3231 0000 0000
000001d0: 0000 0000 0000 0000 0000 0000 0000 0000
000001e0: a772 baba 9c27 deba 84ee bfba 6522 cf39
000001f0: 6522 cfb9 3439 9c3b bc0e 963a 2bf2 763b
00000200: 37f5 1f3b 37f5 1fbb 7425 8fb9 cd8d 82b9
00000210: e043 d6b7 f657 deb8 2b57 de38 1070 b03a
00000220: 5f69 4d3b 4af2 13bb da88 59bb da88 593b
00000230: 9179 6bb9 cef0 4f38 f9fd 23bc d620 a93b
00000240: d620 a9bb f241 3a39 c714 153b b043 30ba
00000250: b4c5 29ba b4c5 293a
0.0019126821 0.00094771304 0.00498425 4.3098233e-05 -4.3098233e-05 0.0032299142 0.0025201766 2.9977178e-05
-0.001358547 0.001358547 0.0 0.0 0.0 0.0 0.0 0.0014361662
0.0006395078 0.0041438546 0.0014102828 -0.001410281 0.001533189 -3.082749e-05 6.6446664e-05 -0.0001221845
0.0001221826 0.00024545426 0.0008595773 -0.00037657822 0.00055579003 -0.00055579003 -0.0010706555 0.0020510466
-0.00055066263 -0.0027359924 0.0027359924 -0.001111267 0.0013006374 -0.0002992769 -0.0018230451 0.0018230444
-0.0013705796 -0.0010912325 0.0013589517 -0.0035684644 0.0035684644 -0.00012767833 0.00013192739 -0.002058747
-0.001304788 0.0013047875 -0.0012818987 -0.00014172238 -0.0015694175 -0.004211096 0.0042110938 -0.0014669446
0.002567839 -0.0014870801 -0.00073778036 0.0007377807 -0.009482176 -0.0005730572 -0.008964011 0.0014657829
-0.0014657829 0.00054945634 0.0011542628 0.0032806138 0.000407358 -0.000407358 0.0 0.0
0.0 0.0 0.0 -0.0005774192 -0.0016891591 0.0073906155 -0.0013962307 0.0013962307
0.0031673377 5.7778718e-05 0.001037092 -0.00020525059 0.00020524954 0.00032106673 -0.0002803278 0.0008451089
0.0006700387 -0.0006700387 0.000535795 0.00070788676 0.001613841 -0.00021870749 0.0002187074 0.00047924666
0.00063989934 -7.177674e-06 -0.011293503 0.011293503 4.3788076e-10 0.0 4.3788026e-10 0.0
4.7478704e-10 -4.436196e-05 0.0005587374 -0.0009780708 0.00041404171 -0.00041404171 2.4015336e-09 6e-45
2.4015334e-09 -6e-45 2.603944e-09 0.0 0.0 0.0 0.0 0.0
-0.0014224843 -0.001694906 -0.0014643227 0.00039507743 -0.00039507743 0.0047675613 0.0011448483 0.0037680964
0.0024407634 -0.0024407634 -0.0002730299 -0.00024901182 -2.5542395e-05 -0.00010602169 0.00010602021 0.0013461132
0.0031343324 -0.0022574835 -0.0033193142 0.0033193142 -0.00022456633 4.9576913e-05 -0.010009282 0.005161385
-0.005161385 0.00017762909 0.002274798 -0.00067239534 -0.00064762984 0.00064762984

exp_avg_sq f4 [30, 5]
00000000: 6d83 ef37 140d e237 6d50 2539 d5ad 0c39
00000010: bdf5 1439 68f3 ac39 3bb9 3338 52c3 cd39
00000020: 14ab ee38 c4da f039 0000 0000 0000 0000
00000030: 0000 0000 0000 0000 0000 0000 65fa 583d
00000040: aa09 7b37 7cc9 593d 72f9 4a38 f5c3 7e3d
00000050: b95e 823b ba6f 9a35 dd12 833b 0bf9 7e36
00000060: 53be 983b aa86 ed3b ccc1 2937 1cf2 ef3b
00000070: 5ec0 6538 e9f4 0b3c 5c5a bc37 dfd1 8438
00000080: dcf8 0138 7b68 4239 7b68 4239 c529 273b
00000090: 1a20 4f36 2ad5 283b ae7d 2838 1fd5 463b
000000a0: 21f4 a838 464f dd37 ea49 a038 98da 1f39
000000b0: 9198 7539 8d42 8139 c629 da34 f701 8339
000000c0: 82fd 7f38 8f6d b639 f94c 0c3a b08b 1738
000000d0: c87c 173a 1927 b139 8c05 733a 6152 3b39
000000e0: 92b8 8a38 e496 6d39 b2b8 4539 f67a bd39
000000f0: 9b4d d739 a532 7e36 a48b d439 2af5 1e38
00000100: 09e5 dc39 4d0a 9238 4351 2938 5cc4 0039
00000110: 3ced 9238 c0a8 9b38 0000 0000 0000 0000
00000120: 0000 0000 0000 0000 0000 0000 64ee 9a37
00000130: d5b0 1138 8b1b e938 3449 fa38 3449 fa38
00000140: 868e 5a3b 02d3 9d35 40d4 5e3b 6f98 7f37
00000150: 70e1 7e3b ff68 1d39 f50f c536 9d8a 2539
00000160: 4752 d537 3c54 4d39 ef65 713b f95a a136
00000170: 3b33 723b d7ed 5737 0d40 8e3b 89fb 633a
00000180: b47e a136 ae0f 6e3a 590d 463a c737 e93a
00000190: a41c 993a 0000 0000 901c 993a 0000 0000
000001a0: 5902 b43a 3b96 af3a e7d4 1137 c438 b03a
000001b0: 2ab4 ad36 394f d03a dda9 a43b b2a0 8430
000001c0: caa9 a43b 6348 1730 1e97 c13b 0000 0000
000001d0: 0000 0000 0000 0000 0000 0000 0000 0000
000001e0: 6fb8 1837 bd83 8138 26d1 b438 a388 8638
000001f0: a388 8638 84b1 8738 b25a 3037 6c51 0d39
00000200: 11a5 4138 203a 5738 b334 4d3c 6b62 0537
00000210: 0aee 4d3c 3768 b137 6961 713c 65ae 103c
00000220: aaab e537 0d0e 113c f27e 0d3a 94b0 343c
00000230: 7e63 5037 c6bf d034 1cb3 8b39 3e3a 3439
00000240: 3e3a 3439 d969 8d38 cdac 5e39 c623 f238
00000250: 4272 8538 4272 8538
2.855222e-05 2.694739e-05 0.00015765587 0.00013416198 0.00014205925 0.00032987748 4.2849435e-05 0.00039246172
0.0001138059 0.0004593936 0.0 0.0 0.0 0.0 0.0 0.05297317
1.4963016e-05 0.053170666 4.8392867e-05 0.062198598 0.003978577 1.1506411e-06 0.0040000514 3.7993912e-06
0.0046613603 0.007248719 1.0118307e-05 0.007322563 5.477701e-05 0.008542278 2.2453423e-05 6.333342e-05
3.0987765e-05 0.00018540204 0.00018540204 0.0025507074 3.086409e-06 0.0025761821 4.017137e-05 0.0030339432
8.056337e-05 2.6382168e-05 7.643162e-05 0.00015244854 0.00023421856 0.00024654382 4.0636058e-07 0.0002498773
6.1032835e-05 0.00034795373 0.0005352046 3.61313e-05 0.0005778787 0.000337892 0.0009270541 0.00017864398
6.614732e-05 0.00022658292 0.00018856188 0.00036140502 0.00041065816 3.7878428e-06 0.0004053983 3.7898462e-05
0.00042132314 6.963741e-05 4.036842e-05 0.00012280181 7.006011e-05 7.422408e-05 0.0 0.0
0.0 0.0 0.0 1.846924e-05 3.473538e-05 0.00011115436 0.00011934564 0.00011934564
0.003334911 1.1758823e-06 0.0034001023 1.5234676e-05 0.0038891695 0.00015011801 5.872915e-06 0.00015787264
2.5429892e-05 0.00019581703 0.0036834439 4.8087645e-06 0.0036956805 1.2870375e-05 0.0043411315 0.00086968445
4.812924e-06 0.0009081316 0.00075550895 0.0017793112 0.0011681509 0.0 0.0011681486 0.0
0.001373361 0.0013396213 8.692244e-06 0.0013444652 5.1767756e-06 0.0015892751 0.005025132 9.649936e-10
0.0050251232 5.503635e-10 0.005907907 0.0 0.0 0.0 0.0 0.0
9.102848e-06 6.1757375e-05 8.622026e-05 6.4150685e-05 6.4150685e-05 6.4703665e-05 1.0511534e-05 0.0001347714
4.6168516e-05 5.1314128e-05 0.0125247715 7.9503325e-06 0.01256896 2.1148573e-05 0.014732697 0.008830641
2.7378865e-05 0.008853448 0.00053976395 0.011028428 1.2420931e-05 3.8882553e-07 0.00026645593 0.00017187835
0.00017187835 6.7431196e-05 0.00021235943 0.000115461226 6.3632164e-05 6.3632164e-05

exp_avg f4 [30]
00000000: 1c39 923a 769d af3b 0000 0000 c07b 1c3c
00000010: 7860 c0ba da63 0f3b b008 8439 e099 153c
00000020: a2d3 013c c997 a23b 840e 7b3c c60b 373c
00000030: 4ecb 3d3b b302 043c 0000 0000 8214 243b
00000040: 2419 72bb c027 48bb a7a4 b73b 72cf f13c
00000050: c12b fd29 314c 483a 1c90 2d2b 0000 0000
00000060: 7c7a 37bc d9ef 4c3b ebeb 1fba 8300 8f3c
00000070: b8f2 dcbc 0d88 513b
0.0011155936 0.005359347 0.0 0.009550989 -0.0014677187 0.0021879585 0.00025183475 0.009130925
0.007923992 0.004961942 0.015323285 0.011172241 0.002896029 0.008057284 0.0 0.0025036638
-0.0036941255 -0.003054127 0.005604345 0.029517863 1.1243047e-13 0.0007640748 6.166194e-13 0.0
-0.011198636 0.003127089 -0.0006100523 0.017456299 -0.026971206 0.0031971962

exp_avg_sq f4 [30]
00000000: 1d32 443a ea8e ea3a 0000 0000 3ebb d039
00000010: 00be f038 190f 5d39 69b7 5a3b 4724 e939
00000020: 02f7 6c3a 69c1 ed39 69a7 483b cdcb 123b
00000030: c798 113a 48e9 073a 0000 0000 3641 483a
00000040: 1ee0 db39 573d 5839 40a8 5539 4b6b b93b
00000050: a159 a92e 685e d637 3496 b730 0000 0000
00000060: aa1f 7a3a 84b7 e239 1423 2b39 6a4b bf3b
00000070: 492e 583b 5619 733a
0.0007484274 0.0017895375 0.0 0.00039812358 0.00011479482 0.00021081827 0.003337348 0.00044468252
0.00090394926 0.00045348264 0.0030617362 0.0022399307 0.00055540766 0.0005184603 0.0 0.0007639112
0.00041937915 0.00020622216 0.00020375941 0.0056585423 7.7011515e-11 2.555475e-05 1.3357693e-09 0.0
0.00095414615 0.0004324281 0.00016320898 0.0058378475 0.0032986572 0.00092734897

exp_avg f4 [64, 30]
00000000: cdd7 45ba b604 043a 0000 0000 4e68 1dba
00000010: 6b35 5539 84a6 f9b5 0489 c037 14d3 2037
00000020: 4ad9 5d38 b33c 7fb9 63c6 5f39 21cb 7739
00000030: c6b9 4639 38c5 c0b8 0000 0000 4c24 cdb9
00000040: 9c2d 8339 8027 2ab8 d12e ccb8 e0a3 ccb9
00000050: 0400 0000 4be9 55b8 0400 0000 0000 0000
00000060: fb07 83b8 bec6 04ba de7f 01ba a4f0 013a
00000070: a75b efb9 4ee7 59b9 1e33 973a 0886 1c39
00000080: 0000 0000 527a 873a 1203 d238 3274 cbb6
00000090: 49e5 6c39 6cff 1839 21ad ad38 0180 2c39
000000a0: 3015 0b3a f4c0 9539 37bb 0bb8 2977 853a
000000b0: 0000 0000 2cba b73a a445 d238 ac73 2f3a
000000c0: 3cbe 193a 98c4 5839 0400 0000 ec9f 6ab7
000000d0: 0400 0000 0000 0000 c247 bb39 6105 a83a
000000e0: c873 a23a c0ff 9e39 98e3 0e3a a838 b839
000000f0: 744a 80ba f7e3 80ba 0000 0000 e6ab 27ba
00000100: 8fde 31ba 3857 57b9 046e d8ba 3687 a6b9
00000110: a58d b2b8 5291 00b8 cb1f 70ba d15a 8cba
00000120: a99c 79b8 fd91 afba 0000 0000 1938 f3ba
00000130: aa27 50ba 2c8b 68ba 8016 ecb9 aca2 0038
00000140: 0400 0000 bbf8 efb8 0400 0000 0000 0000
00000150: aeb3 9bba c273 84ba 18c0 82ba 7a9c 97ba
00000160: f7e7 23ba 9c1f 70ba 0475 6b38 2c4e e339
00000170: 0000 0000 0515 aab8 ad72 0f39 8ada 0e39
00000180: 234f 0a3a 0001 fdb4 0155 96b6 0137 aeb4
00000190: dbc3 b739 c0ed ca39 485a 8638 1a70 6e39
000001a0: 0000 0000 aa1e c939 2765 c138 6e44 a239
000001b0: 0dcb 1638 8726 8ab5 0400 0000 d55c 6639
000001c0: 0400 0000 0000 0000 c1b3 0b39 4e91 4a38
000001d0: ce30 cf38 abab 8439 4a5c ca37 1e59 1339
000001e0: cd8d 23bb 3582 9c3a 0000 0000 2e2f d1ba
000001f0: 0d4e 293a 0400 0080 60b8 e938 1a0a d538
00000200: 7d44 0d39 5342 e1b9 9bb3 c439 6e85 e639
00000210: 464c e439 54b4 9fba 0000 0000 b58d 45bb
00000220: 7cae 623a d676 62ba 8c59 01ba 7fde 25ba
00000230: 0400 0000 d729 b1b8 0400 0000 0000 0000
00000240: 73b9 81b9 9d03 08bb c209 ffba 1d54 ac3a
00000250: 1a94 5eba 1614 c4b9 5ba2 9aba 44c5 05bb
00000260: 0000 0000 bd5f 95b9 908e 37ba 96ef a1b8
00000270: 483e 22bb ea73 d1b9 c561 3eb3 0400 0080
00000280: f14f 50bb 24a7 16bb 828a 2737 d5f1 d5ba
00000290: 0000 0000 8fe7 5abb 9f70 89b9 3e0e 10bb
000002a0: b31b d3b9 0400 0080 0000 0000 03a4 e5b9
000002b0: 0000 0000 0000 0000 54e4 c1ba e013 2dba
000002c0: 4eaa 7cba 43a9 08bb 25b4 0a38 ab48 0ebb
000002d0: 0d2e e6ba 671b e839 0000 0000 8672 5fba
000002e0: 1fea 9039 28b4 9b0f c099 9d36 b2ac 0a39
000002f0: 0cbc 2fb9 4252 a4b9 bfe0 fdb9 00a6 ea37
00000300: 54cd 2e39 deba b2ba 0000 0000 c3ac 51bb
00000310: 86b4 ba39 5c13 c2ba 6d75 1aba 5e8c 89b9
00000320: 0400 0000 6095 9235 0400 0000 0000 0000
00000330: 2aa3 74b8 f4b1 bfba c254 d2ba 2607 483a
00000340: 817b adb9 039e 67b9 704a ab39 86df c2b3
00000350: 0000 0000 7ecc eb39 6e1b c607 bdbd 4207
00000360: 0400 0080 b269 e037 d18f 7338 7cd4 eb38
00000370: 9002 2039 40d3 13b3 9910 a7b4 4a5b 6939
00000380: 0000 0000 66f1 6439 aed4 6407 a2f2 1c39
00000390: 1dd7 8939 afba 2139 54a5 d707 213a 3207
000003a0: db49 a407 0000 0000 fc32 2835 0845 eb39
000003b0: 4905 ea39 564a 1437 8575 bb38 e991 3b37
000003c0: f4bc 48bb 7c33 e4ba 0000 0000 a60d 57bb
000003d0: f543 8dba f346 65b9 c439 e7ba 986d 68ba
000003e0: b8c0 c3b8 7143 88b9 8ce3 2bbb 1cf5 00bb
000003f0: 290d 8bb8 ba67 4fbb 0000 0000 f26f 57bb
-0.00075471104 0.00050361024 0.0 -0.00060046173 0.00020333163 -1.8600408e-06 2.2951986e-05 9.585889e-06
5.2892872e-05 -0.00024341307 0.00021340842 0.00023631427 0.00018951957 -9.192008e-05 0.0 -0.0003912769
0.0002502025 -4.0567946e-05 -9.736198e-05 -0.00039032008 6e-45 -5.100043e-05 6e-45 0.0
-6.248053e-05 -0.0005065015 -0.0004940013 0.0004956818 -0.0004565392 -0.000207809 0.001153562 0.0001492725
0.0 0.0010336137 0.00010014152 -6.0633984e-06 0.00022592129 0.00014591002 8.2815306e-05 0.00016450883
0.00053055864 0.00028563256 -3.331454e-05 0.0010182607 0.0 0.0014017276 0.00010026552 0.00066929567
0.0005864834 0.00020672602 6e-45 -1.3984722e-05 6e-45 0.0 0.00035720883 0.0012818986
0.0012394125 0.00030326657 0.0005450784 0.00035137427 -0.0009787814 -0.0009833564 0.0 -0.00063961593
-0.0006785178 -0.0002053649 -0.0016512279 -0.00031762727 -8.514085e-05 -3.065292e-05 -0.0009160011 -0.0010708218
-5.9512127e-05 -0.0013394948 0.0 -0.0018556147 -0.0007940481 -0.0008870836 -0.00045030192 3.0669078e-05
6e-45 -0.00011442738 6e-45 0.0 -0.001187911 -0.0010105299 -0.0009975461 -0.0011567019
-0.0006252522 -0.00091599836 5.6137345e-05 0.00043355057 0.0 -8.110147e-05 0.00013680263 0.00013623587
0.00052760745 -4.712565e-07 -4.480244e-06 -3.2450046e-07 0.00035050404 0.0003870558 6.406434e-05 0.0002273921
0.0 0.00038360554 9.221798e-05 0.00030950032 3.5951893e-05 -1.0293014e-06 6e-45 0.00021969092
6e-45 0.0 0.00013323037 4.829588e-05 9.87962e-05 0.00025304905 2.4123252e-05 0.00014052211
-0.0024956346 0.001194066 0.0 -0.0015959495 0.0006458469 -6e-45 0.00011144648 0.00010158513
0.00013472322 -0.0004296476 0.0003751785 0.0004396843 0.00043544377 -0.0012184479 0.0 -0.0030144278
0.0008647216 -0.0008638924 -0.0004934303 -0.0006327405 6e-45 -8.447811e-05 6e-45 0.0
-0.00024742968 -0.0020754107 -0.0019457864 0.0013147626 -0.0008490697 -0.00037398998 -0.0011797653 -0.002041177
0.0 -0.00028490825 -0.00070021395 -7.7217046e-05 -0.002475636 -0.0003994995 -4.4326743e-08 -6e-45
-0.003178593 -0.0022987807 9.9862245e-06 -0.0016322682 0.0 -0.003340218 -0.00026214586 -0.0021981145
-0.00040265694 -6e-45 0.0 -0.00043800482 0.0 0.0 -0.0014792779 -0.0006602388
-0.00096384145 -0.002085284 3.3069537e-05 -0.0021710794 -0.0017561332 0.00044270905 0.0 -0.000852384
0.00027640254 1.5353574e-29 4.6968635e-06 0.0001322504 -0.00016759353 -0.00031341804 -0.0004842337 2.7972274e-05
0.00016670424 -0.0013636013 0.0 -0.0031993843 0.00035611185 -0.0014806795 -0.00058921316 -0.00026235258
6e-45 1.0921322e-06 6e-45 0.0 -5.832609e-05 -0.0014625178 -0.0016046988 0.000763046
-0.0003308915 -0.0002208874 0.00032671122 -9.074488e-08 0.0 0.0004497505 2.980785e-34 1.4650697e-34
-6e-45 2.6752099e-05 5.8069654e-05 0.000112452515 0.00015259744 -3.4418235e-08 -3.111825e-07 0.0002225462
0.0 0.00021833702 1.7215315e-34 0.00014967707 0.00026290948 0.00015423702 3.2446776e-34 1.3408314e-34
2.4719386e-34 0.0 6.265907e-07 0.00044874125 0.00044635896 8.838795e-06 8.9387446e-05 1.1180041e-05
-0.0030630203 -0.0017410363 0.0 -0.0032814532 -0.0010777699 -0.00021865572 -0.0017641117 -0.00088664284
-9.334221e-05 -0.0002599019 -0.0026228158 -0.0019677347 -6.630488e-05 -0.003164752 0.0 -0.003287312

exp_avg_sq f4 [64, 30]
00000000: 7f69 9337 97e0 3d36 0000 0000 1e0a 8337
00000010: 1743 0e36 1fc9 7c32 38c6 4636 9cbc 9235
00000020: e148 8834 a733 b434 8ba1 8037 d5d1 5e36
00000030: 4f2d 2a33 30ff 9737 0000 0000 0d32 2838
00000040: 87ae c635 1690 4b37 f02c 0d37 cb3a 1c35
00000050: c387 0736 e706 d333 3243 9635 0000 0000
00000060: 31c7 6636 cd35 c137 7394 c937 2d01 c836
00000070: c3ca 5736 1700 3d36 46f1 2037 db5f c035
00000080: 0000 0000 5610 ea36 ce2c 0c37 c58d 8b32
00000090: 3352 4436 3b6d ff36 bbe0 dd34 003b a835
000000a0: ba41 a136 c406 fd35 2284 9233 84d2 3037
000000b0: 0000 0000 9ae9 b337 ffa3 1036 6d84 cb36
000000c0: 4c9b d437 b66e 9c33 f1ba d436 e4c9 8b33
000000d0: a4d0 c136 0000 0000 6add 1e36 e06f 5f37
000000e0: 6896 7437 db22 2a36 e427 eb35 7d30 af35
000000f0: daf6 3338 93f0 b537 0000 0000 b05a 0138
00000100: 3570 2c37 bcab d535 9fdd 3938 871b 6036
00000110: 058b 6234 bc89 a234 e1b6 9c37 ba38 b637
00000120: 3a26 7f34 b5df 4738 0000 0000 8e60 b838
00000130: 6e11 7637 5c81 9437 944e 6137 a3a8 0834
00000140: 0660 2f35 a06b da35 78ce 2e35 0000 0000
00000150: eb79 c137 f91d 7c38 6859 6138 7a69 1338
00000160: ce28 2e37 b395 7a37 65ff 1935 fef8 4b37
00000170: 0000 0000 fdad 1335 7383 6337 f38b 8134
00000180: 97e7 c836 e8f1 6337 afb7 9035 b16c 6136
00000190: ed85 a837 5eea 0937 df47 0935 edee d335
000001a0: 0000 0000 5f23 cf36 6577 cb36 007c e036
000001b0: 95a0 3f38 be02 ee30 2ee7 0c37 a88f d035
000001c0: 49c0 0e37 0000 0000 60de 1435 b009 2735
000001d0: e3a7 3036 47b0 5537 d2ca 5d33 500e 3c36
000001e0: f67a fb37 dd93 8136 0000 0000 827b 2b38
000001f0: e6a3 6b38 b817 242f 5e1c 9e34 a969 ac37
00000200: 1ef3 4235 7aef 4b35 84f3 0d38 fb0c 3e36
00000210: 443c e133 220c e337 0000 0000 6c9a 8538
00000220: c088 0138 c160 cb37 011f 7e38 e4bd d735
00000230: 3763 c938 2bac 4533 a995 b637 0000 0000
00000240: 4c1b 6335 cc5b 2f38 8483 6538 2ab3 bf36
00000250: b940 4c36 ad6c d935 0a5a 4d36 b5ee f836
00000260: 0000 0000 af88 ae34 2518 3836 e556 1f34
00000270: ab1d b737 dfb4 0a35 9ffa 0c2d 46cf b623
00000280: 9772 2437 1530 1537 bad0 3133 38d3 d936
00000290: 0000 0000 85e6 9637 6466 4c36 4e87 c136
000002a0: 0e64 d434 d81f 532a 0000 0000 2387 8c34
000002b0: 0000 0000 0000 0000 2823 0f37 9c28 d535
000002c0: 79d3 1d36 6039 1d37 a5cd 4c35 b3d8 cc36
000002d0: b3c5 9437 d01d dd35 0000 0000 8a1d 3d37
000002e0: 1ae3 ab36 cdd8 0f31 deb8 1435 5626 a536
000002f0: 8942 5135 46c7 5c35 9956 c637 d2c7 0f36
00000300: 2e6b 9433 d2a9 7837 0000 0000 15a4 8338
00000310: dd0b 8435 3604 c737 473e a937 2917 8934
00000320: 4352 c336 e1da ae32 4a42 4e36 0000 0000
00000330: ee28 cb34 0569 9637 16fc cd37 ad0e e935
00000340: 9329 dc34 0539 c335 bd2e 5d36 4538 af34
00000350: 0000 0000 c3ad 0037 9a2e 0f38 4b7f 9333
00000360: e437 972c 4ceb cb37 7f4e 1734 459b a036
00000370: 9c5c 2735 b38c 9433 549c b333 29ad 0436
00000380: 0000 0000 fc8f 4e36 4ec9 2237 7512 9936
00000390: e0fb 3938 bb7d 2135 c38a 3838 dd9e 8333
000003a0: 9ec2 b437 0000 0000 f688 7b31 74dc b036
000003b0: bbf9 a637 00f4 8432 b8f6 7134 352d a931
000003c0: a8a3 6e38 1045 4837 0000 0000 7d98 d338
000003d0: 8920 d139 57ca d834 9e3b e837 4859 2737
000003e0: 7f9c 5834 50fa 4534 afd3 ab37 010e 7737
000003f0: 662d 2d33 9488 8338 0000 0000 700c db38
1.7572891e-05 2.8293923e-06 0.0 1.5621128e-05 2.11987e-06 1.471406e-08 2.9619678e-06 1.093274e-06
2.5385e-07 3.3565195e-07 1.5334013e-05 3.3202716e-06 3.9622417e-08 1.8119434e-05 0.0 4.0100935e-05
1.4802944e-06 1.21332905e-05 8.414718e-06 5.8200084e-07 2.0195591e-06 9.826709e-08 1.1195427e-06 0.0
3.4388615e-06 2.3032446e-05 2.4030194e-05 5.9606014e-06 3.215552e-06 2.8163247e-06 9.592919e-06 1.4333012e-06
0.0 6.975645e-06 8.355082e-06 1.6246199e-08 2.9254122e-06 7.6123083e-06 4.132797e-07 1.2534147e-06
4.8058255e-06 1.8851938e-06 6.8226896e-08 1.0539432e-05 0.0 2.1447242e-05 2.155313e-06 6.065288e-06
2.5344685e-05 7.284454e-08 6.339855e-06 6.5094156e-08 5.776137e-06 0.0 2.3672715e-06 1.3317884e-05
1.45785525e-05 2.5352263e-06 1.7520474e-06 1.3052628e-06 4.2906824e-05 2.1688908e-05 0.0 3.0840456e-05
1.0278124e-05 1.5919718e-06 4.4313838e-05 3.3394624e-06 2.1098465e-07 3.0275066e-07 1.8681809e-05 2.1722506e-05
2.3762632e-07 4.765364e-05 0.0 8.7917884e-05 1.4666801e-05 1.7703213e-05 1.34293405e-05 1.2727337e-07
6.533231e-07 1.6273589e-06 6.51205e-07 0.0 2.3064165e-05 6.0109396e-05 5.3727446e-05 3.5145764e-05
1.0380709e-05 1.4936016e-05 5.736859e-07 1.2157716e-05 0.0 5.5014954e-07 1.356086e-05 2.412995e-07
5.987425e-06 1.3586578e-05 1.0782295e-06 3.359088e-06 2.0089525e-05 8.220404e-06 5.1141063e-07 1.5790262e-06
0.0 6.1731985e-06 6.063771e-06 6.6901557e-06 4.5687502e-05 1.7317558e-09 8.398476e-06 1.5539017e-06
8.508629e-06 0.0 5.5457895e-07 6.2226445e-07 2.6323767e-06 1.2736832e-05 5.1640036e-08 2.8022514e-06
2.997879e-05 3.861713e-06 0.0 4.0884603e-05 5.618101e-05 1.492414e-10 2.9450433e-07 2.05532e-05
7.2624414e-07 7.597188e-07 3.384381e-05 2.8319762e-06 1.0488341e-07 2.7066159e-05 0.0 6.3706975e-05
3.0883355e-05 2.424454e-05 6.0587194e-05 1.6074014e-06 9.602907e-05 4.6024223e-08 2.1765782e-05 0.0
8.460381e-07 4.1808744e-05 5.4720338e-05 5.713101e-06 3.0436042e-06 1.6199389e-06 3.059979e-06 7.418765e-06
0.0 3.2509476e-07 2.743219e-06 1.4839641e-07 2.1829115e-05 5.167221e-07 8.013728e-12 1.9820263e-17
9.801842e-06 8.892287e-06 4.140086e-08 6.491693e-06 0.0 1.7988737e-05 3.0457968e-06 5.7675998e-06
3.9560877e-07 1.8751613e-13 0.0 2.6175357e-07 0.0 0.0 8.53165e-06 1.5881556e-06
2.3517916e-06 9.371288e-06 7.6295174e-07 6.104901e-06 1.7735036e-05 1.647446e-06 0.0 1.12721555e-05
5.1226352e-06 2.0932476e-09 5.5403314e-07 4.921846e-06 7.795539e-07 8.224637e-07 2.3643765e-05 2.1424971e-06
6.911283e-08 1.4821491e-05 0.0 6.2771294e-05 9.838219e-07 2.372461e-05 2.017537e-05 2.553509e-07
5.8210294e-06 2.03558e-08 3.0734977e-06 0.0 3.7841477e-07 1.7930297e-05 2.4555291e-05 1.7364124e-06
4.1008443e-07 1.4545227e-06 3.2958771e-06 3.2637232e-07 0.0 7.669852e-06 3.4137258e-05 6.8683754e-08
4.2978832e-12 2.4309054e-05 1.4091528e-07 4.7864473e-06 6.234711e-07 6.91738e-08 8.363773e-08 1.9770325e-06
0.0 3.0780202e-06 9.702822e-06 4.561904e-06 4.4342014e-05 6.0160136e-07 4.399825e-05 6.12906e-08
2.1548298e-05 0.0 3.660316e-09 5.270873e-06 1.9905032e-05 1.547778e-08 2.253463e-07 4.923687e-09
5.689604e-05 1.1937009e-05 0.0 0.00010089667 0.00039887827 4.0380357e-07 2.7684317e-05 9.974763e-06
2.01735e-07 1.8438118e-07 2.0483361e-05 1.4725608e-05 4.032099e-08 6.2720064e-05 0.0 0.000104450504

exp_avg f4 [64]
00000000: 2a87 b1b8 0e9f c03a 2e57 07bb 2731 d039
00000010: b26b 9bba 887d 84bb 4a4b d4ba 0435 b439
00000020: 9ba6 b2bb 3828 b7b8 0400 0080 dd79 373a
00000030: 04df 493a 04fd 35ba 80e0 0fbb 01be 45bc
00000040: 0b95 95ba ce67 9d39 a423 863a 0b7f 87bb
00000050: 3094 2638 be75 2b3a 8155 b33b 617a 1bb9
00000060: 7c3b b7ba 0000 0000 df32 103b 0400 0000
00000070: 0400 0000 0400 0000 40f7 293b 3fbc f838
00000080: d021 fbb7 dda0 fbbb 8395 6e39 d7b4 d63a
00000090: 40d7 cb37 efc7 023b 7d45 5eba 6a4b f63a
000000a0: 287c bcba d0de 443a 243d 753b d0cd 6cb8
000000b0: cdaa 8b3a 4a22 f0ba 7ec8 a73b a5e1 913a
000000c0: 0400 0000 0000 0000 f01e 1d3b 478b a53b
000000d0: 5980 da3a 0400 0000 8d3f 87ba c4a6 7238
000000e0: 72af 48b9 bb46 b63a 28ef 78bb de16 afb9
000000f0: e988 f7ba 6e01 ebb8 b7e1 353a 0400 0000
-8.465194e-05 0.001469584 -0.0020651328 0.00039709473 -0.0011857657 -0.004043285 -0.0016196754 0.00034371775
-0.00545199 -8.733611e-05 -6e-45 0.0006999055 0.00077007734 -0.00069423043 -0.002195388 -0.012069226
-0.0011412216 0.00030022714 0.001023401 -0.0041350177 3.9715494e-05 0.0006540677 0.0054728393 -0.00014827542
-0.001397952 0.0 0.0022002978 6e-45 6e-45 6e-45 0.0025934726 0.00011860625
-2.9937277e-05 -0.0076790885 0.00022753146 0.0016380799 2.429972e-05 0.0019955595 -0.00084789825 0.0018790786
-0.0014380263 0.0007510008 0.0037420476 -5.6458462e-05 0.0010655761 -0.0018320766 0.005120336 0.0011129869
6e-45 0.0 0.002397474 0.0050520035 0.0016670331 6e-45 -0.0010318622 5.785261e-05
-0.00019138845 0.0013906577 -0.0037984345 -0.00033395638 -0.0018885407 -0.000112059395 0.0006938236 6e-45

exp_avg_sq f4 [64]
00000000: 6be6 3538 74c8 af37 0d45 c738 1f70 8337
00000010: 595d 9038 833a be37 4132 3738 64f6 6736
00000020: d2d0 0039 5cb5 6738 aa68 d92d 1917 ab36
00000030: 4957 4e38 56d4 a337 4ffe 6438 3ebc d43a
00000040: b599 9037 bc16 5638 75dd 1837 9966 053a
00000050: 4c1d f036 831f 0a36 da59 0c39 bee0 e735
00000060: 7187 af38 0000 0000 916c f337 5e3b 4d27
00000070: 5a6a 9c2b a0e7 4228 4d79 f638 3f9c 8838
00000080: ad5c f137 429e c239 f4a5 8d37 1996 d637
00000090: 640c 3d38 015a 0039 2204 7a37 9b52 d837
000000a0: 0cb6 9237 a910 0236 2443 c038 30a4 2b37
000000b0: cfe7 0337 7dc8 dc37 830d 0439 0df3 1837
000000c0: 7827 042f 0000 0000 932f 4b38 cb6f 4239
000000d0: ed8c c738 5637 7125 fba1 9637 a607 3237
000000e0: e385 1139 1092 d137 5f44 f238 cd49 ae37
000000f0: 5196 0938 451e 8636 257f 3438 14aa f12b
4.3368356e-05 2.0954969e-05 9.501921e-05 1.5668627e-05 6.8838424e-05 2.2677012e-05 4.3677403e-05 3.45651e-06
0.00012284823 5.5243596e-05 2.4716524e-11 5.098886e-06 4.9195518e-05 1.952999e-05 5.459628e-05 0.0016230417
1.7237713e-05 5.104275e-05 9.111468e-06 0.00050888356 7.155968e-06 2.0581945e-06 0.00013384913 1.727625e-06
8.369878e-05 0.0 2.9018413e-05 2.8481648e-15 1.1113985e-12 1.0819389e-14 0.00011752788 6.5140885e-05
2.8772594e-05 0.00037120475 1.6885788e-05 2.5580683e-05 4.507265e-05 0.0001224056 1.4902123e-05 2.5787673e-05
1.7489328e-05 1.9381207e-06 9.167779e-05 1.0230622e-05 7.862181e-06 2.6319403e-05 0.00012593534 9.116496e-06
1.2019352e-10 0.0 4.844328e-05 0.00018542928 9.515309e-05 2.0922166e-16 1.7956821e-05 1.0611408e-05
0.00013878154 2.4982757e-05 0.00011552194 2.0776783e-05 3.280334e-05 3.997035e-06 4.3033757e-05 1.7171286e-12

exp_avg f4 [3, 64]
00000000: b91b bcbb 0312 0bbc fd67 55bb c8f3 6cb9
00000010: 8e93 29bb 093e 46ba 4ecc a1ba 9695 4cb8
00000020: 2ea8 cebb a708 37bc 0400 0080 fff0 8a38
00000030: 8afe ccba 2086 83b7 d19e bfba 7878 c0bb
00000040: f4dd f7ba 703d fcb9 60cf 49bb fc24 10bb
00000050: d4cb bfbb 8bf4 07bc d87c dfbb d8b2 92ba
00000060: 4d53 18bb 0000 0000 9cf7 91bb 0400 0080
00000070: 0400 0080 0400 0080 0f89 0abb 101f 3abc
00000080: a245 56ba 324a dfbb 44dc d638 6ccd 52bb
00000090: 8ebc 14bb 6663 05bc 62e6 17bb ae7c 3bbb
000000a0: 78e3 c8b8 c770 86b9 80ce a8bb 28b8 a2b8
000000b0: a4d2 e8ba a88a 1abb 339d b7bb 65e7 26bb
000000c0: 0400 0080 0000 0000 4638 b9bb 28b0 7dbc
000000d0: 496e 6eba 0000 0000 5ee9 d9ba 6142 a6bb
000000e0: bb85 89bb cb0d 0fba b8fc c5bb 16b4 3f39
000000f0: 30fb d1ba 43f4 82ba 389a e3bb 0400 0000
00000100: 488d de38 665c 483b 0931 88b9 3a6c 8db8
00000110: 0e78 773a b072 85b7 e57b a73a ee96 bdb8
00000120: 91fb 403a 9ba2 6b3a 0400 0000 d3de 4b39
00000130: eea8 c5ba 7c04 393a 34f7 843a 4d04 2d3b
00000140: 9fdd f33a fde0 08ba f4df 223b 871e 753a
00000150: 65ea d239 8434 0f3b 4e67 a63a 2a94 d639
00000160: cc87 5639 0000 0000 14f0 fd3a 0400 0000
00000170: 0400 0080 0000 0000 8068 a637 0cd3 5b3b
00000180: 1485 1dba 7a1d 2d3a 1674 aa39 0608 db3a
00000190: 274d 8739 7467 9c3a 80a9 30b9 591f 273b
000001a0: dcac 923a da38 5c3a d059 423b 18a2 2739
000001b0: 9817 aa3a 20b2 07bb 49b0 2c3b 0071 c9b5
000001c0: 0400 0000 0000 0000 2f1c d43a ce6c 7c3b
000001d0: d2cd 5db9 0400 0080 00f2 7338 062b 71ba
000001e0: d428 b83a e022 f739 dfba 4aba eb84 78b9
000001f0: 7836 b0b9 4f7e a839 108c 0539 0400 0080
00000200: 8acf 83ba 6a77 ceba f431 cb39 950d 4839
00000210: 7da2 97ba 76b2 5b39 ce07 d2b9 7b68 03b8
00000220: 34de 45ba 6802 b6b9 0400 0000 de36 6ab9
00000230: b652 3d3a 8d2a 4239 4df7 e839 648d 04bb
00000240: 621b d039 6201 a137 c71c 35ba 32f6 fbb9
00000250: 5810 0aba 00da bf36 f889 15bb e62d a7b9
00000260: 94b9 8b3a 0000 0000 20f8 aaba 0400 0000
00000270: 0400 0000 0000 0000 e309 4b38 849d cdba
00000280: 4a76 8c39 08dd e2b9 7d3d 0d39 9bce 05ba
00000290: c2ee 183a 03bf e9ba e028 d0b9 d84b 00ba
000002a0: d6eb 4c39 193e b138 90dd 8fba 3779 1bb8
000002b0: 13ca 24ba 880b 61b7 ed40 a8ba 3b22 53ba
000002c0: 0000 0000 0000 0000 ef07 fcba d74c 1ebb
000002d0: 702a 8238 0000 0000 098d a5b9 5ece 593a
000002e0: 2764 19bb c300 92b9 fdda 8f3a 7f5e 68b8
000002f0: cc9a 8739 319c 7fb9 e0c2 5f38 0400 0000
-0.0057406095 -0.008488181 -0.0032563203 -0.0002259753 -0.0025875303 -0.00075623445 -0.0012344213 -4.8776703e-05
-0.0063066697 -0.0111714965 -6e-45 6.625242e-05 -0.0015639823 -1.5678874e-05 -0.0014619475 -0.005873736
-0.0018910752 -0.0004811096 -0.003079377 -0.00219947 -0.0058531556 -0.00829805 -0.0068203025 -0.0011192216
-0.002324301 0.0 -0.004454566 -6e-45 -6e-45 -6e-45 -0.0021138822 -0.011359945
-0.0008173828 -0.0068142647 0.00010245343 -0.0032165898 -0.0022695395 -0.008141374 -0.002317809 -0.002860825
-9.5791125e-05 -0.00025642497 -0.00515157 -7.759064e-05 -0.0017762971 -0.002358118 -0.0056034564 -0.0025467512
-6e-45 0.0 -0.0056524603 -0.015483893 -0.0009095413 0.0 -0.0016625335 -0.005073831
-0.00419685 -0.00054570724 -0.0060420893 0.00018282267 -0.0016020294 -0.0009991009 -0.0069458745 6e-45
0.000106121006 0.0030572652 -0.00025976475 -6.743563e-05 0.0009440192 -1.5908241e-05 0.0012778012 -9.040335e-05
0.0007361705 0.00089887687 6e-45 0.00019442597 -0.0015080252 0.0007057858 0.0010144473 0.0026400269
0.0018605477 -0.0005221514 0.0024852725 0.0009350557 0.0004022896 0.002185137 0.0012695582 0.00040927652
0.00020459219 0.0 0.0019373917 6e-45 -6e-45 0.0 1.9837404e-05 0.0033542542
-0.0006008905 0.00066038186 0.00032511418 0.0016710765 0.0002580669 0.0011932687 -0.00016847812 0.0025500862
0.0011190432 0.00084008055 0.0029655583 0.00015986746 0.0012977002 -0.0020705536 0.0026350191 -1.5008554e-06
6e-45 0.0 0.0016182716 0.0038517 -0.00021152876 -6e-45 5.8161095e-05 -0.00091998314
0.0014050254 0.00047137495 -0.00077335344 -0.00023700639 -0.00033609918 0.00032137564 0.00012736046 -6e-45
-0.0010056358 -0.0015752141 0.00038756395 0.00019078546 -0.0011568811 0.0002095195 -0.00040060136 -3.133014e-05
-0.00075480645 -0.00034715538 6e-45 -0.00022336419 0.0007222103 0.00018517133 0.00044434742 -0.0020225877
0.00039693253 1.919334e-05 -0.000690889 -0.0004805788 -0.00052667176 5.717622e-06 -0.0022817831 -0.0003188692
0.0010660165 0.0 -0.0013043918 6e-45 6e-45 0.0 4.840818e-05 -0.0015687202
0.00026791013 -0.0004327076 0.00013469714 -0.0005104334 0.00058339175 -0.0017833415 -0.00039703306 -0.0004894114
0.00019542812 8.451584e-05 -0.0010976065 -3.706777e-05 -0.0006286215 -1.341373e-05 -0.0012836732 -0.0008054112
0.0 0.0 -0.0019228439 -0.0024154687 6.206788e-05 0.0 -0.00031576332 0.0008308644
-0.0023405643 -0.00027847858 0.0010975298 -5.5401117e-05 0.0002586454 -0.00024376881 5.3348835e-05 6e-45
